Week 8 - Evaluating ML Algorithms/Models/binary.pt (torch_old, 6840 bytes, 2 tensors)

linear.weight f4 [2, 784]
0	0xbc8284a5	-0.01593239
1	0x3c5baed8	0.013408385
2	0x3d079273	0.03309865
3	0x3d09b0c7	0.033615854
4	0x3d03cc5b	0.03217731
5	0x3ca69c12	0.020338092
6	0xbcbf3cc5	-0.023344407
7	0x3c933cba	0.017973293
8	0x3cbe6f06	0.0232463
9	0x3c9fb448	0.019495144
10	0xbcd9e8ea	-0.02660032
11	0x3b9b7e08	0.0047452487
12	0x3cdd831a	0.027040053
13	0x3c04e496	0.00811114
14	0xbd064bc4	-0.0327871
15	0x3d11aac3	0.03556324
16	0x3ac3bfc0	0.0014934465
17	0xbb9ae3b8	-0.004726853
18	0xbcbfa935	-0.023396114
19	0xb8dabc00	-0.00010430068
20	0xbc9e553e	-0.019327756
21	0xbc341ce6	-0.010993218
22	0x3bc0cbf0	0.0058836862
23	0xbc7e4186	-0.015518552
24	0x3ce5f512	0.02807096
25	0xbd03ed28	-0.03220859
26	0xbc86a390	-0.016435415
27	0xbd0faea0	-0.035078645
28	0x3c7058bc	0.014669593
29	0xbb14fcf0	-0.002273377
30	0x3c09ea94	0.008417744
31	0xbcd8cf08	-0.026465908
32	0xbcb5de5e	-0.02220076
33	0xbbfad23c	-0.0076544564
34	0xbab33bc2	-0.0013674425
35	0xbcbb4261	-0.0228588
36	0x3c7ed3fb	0.01555347
37	0xbbd0f23c	-0.006376533
38	0x3cf7a69f	0.030230818
39	0xbc8ef84e	-0.017452385
40	0x3c0f83b2	0.008759426
41	0xbc14596a	-0.009054521
42	0xbb99bc9b	-0.004691673
43	0x3c6a5563	0.014302584
44	0x3c8d229f	0.017228423
45	0x3ae1bc32	0.0017222224
46	0x3aaddbca	0.0013264355
47	0xbcab7257	-0.020928545
48	0xbc2b4179	-0.010452622
49	0xbc85ba23	-0.016324108
50	0xbd05ec32	-0.032695957
51	0x3b6cba19	0.0036121665
52	0x3ce9e8ce	0.028553393
53	0xbc09b1fc	-0.008404251
54	0xbc550526	-0.013001716
55	0xbbc47bd4	-0.005996207
56	0x3d0c2193	0.034211706
57	0x3b9de4f0	0.0048185512
58	0x3d0db09f	0.034592267
59	0x3b9c225a	0.004764837
60	0x3c8b722e	0.017022219
61	0x3d075538	0.033040255
62	0xbcdbe0ee	-0.026840653
63	0xbc880b49	-0.016606944
64	0x3cb1fe62	0.021727744
65	0x3c23c456	0.009995541
66	0x3cea4f6e	0.028602328
67	0xbc9abecc	-0.018889807
68	0xbc4e574e	-0.012594057
69	0x3be9cce8	0.0071350224
70	0x3cecb85a	0.0288965
71	0xbbc6faef	-0.006072394
72	0xbc481d26	-0.012213981
73	0xbc1f1e28	-0.00971178
74	0x3ce29460	0.027658641
75	0x3cbc3867	0.022976113
76	0xbce6f505	-0.028193006
77	0xbd0f10b5	-0.034928042
78	0x3c6011e5	0.013676141
79	0x3c68d5de	0.014211146
80	0xbc6e4cba	-0.01454466
81	0x3b8cfc6c	0.004302552
82	0xbd0637fb	-0.03276823
83	0x3ce8ae1e	0.028403338
84	0x3b6e3210	0.0036345758
85	0x3c532f58	0.012889706
86	0xbc9cf383	-0.019159084
87	0x3afa2362	0.0019084031
88	0xbcd46347	-0.025926245
89	0x3b5f269c	0.0034050113
90	0x3ceff78b	0.029292842
91	0xbcc8868d	-0.024478221
92	0xbc791a21	-0.0152039835
93	0xbc8d43e9	-0.017244296
94	0xbc270f55	-0.010196527
95	0xbcbcbf6c	-0.023040496
96	0x3b03ddbb	0.0020121175
97	0xbd25849d	-0.040409673
98	0xbd4345ed	-0.04767411
99	0xbd26c8dc	-0.0407189
100	0x3b85ae9d	0.0040796534
101	0xbd09c0b1	-0.03363103
102	0x3be20cd1	0.0068985005
103	0x3c796b7e	0.015223382
104	0x37c69902	2.367469e-05
105	0xbcfc3f06	-0.03079177
106	0x3ced5923	0.028973168
107	0x3aa5697a	0.0012619935
108	0x3ce10685	0.027468929
109	0x3cb81dcf	0.022475151
110	0x3ca637c2	0.02029026
111	0x3c7e1a08	0.015509136
112	0x3d052d43	0.032513868
113	0x3c90f607	0.01769544
114	0xbcc6aed4	-0.024253286
115	0xbc4cfd8b	-0.012511621
116	0x3b96338a	0.0045837807
117	0xbd078e98	-0.033094972
118	0xbd0fa137	-0.035065856
119	0xbbaba75e	-0.0052384576
120	0xbc6529d1	-0.013987021
121	0xba9594a7	-0.00114121
122	0xbd4b47ec	-0.049629137
123	0x3a289964	0.00064315484
124	0xbca702b1	-0.020387026
125	0xbd0efedd	-0.034911025
126	0xbd0f39d4	-0.03496726
127	0xbc9e579e	-0.019328889
128	0xbd1905c4	-0.037359014
129	0x3bb27f9e	0.005447342
130	0xbc45f569	-0.012082436
131	0xbd1b755c	-0.03795372
132	0x3cd845d0	0.026400477
133	0xbbc97eee	-0.0061491644
134	0xbd1d62b9	-0.038424227
135	0xbc92ff84	-0.017944105
136	0x3d006b3a	0.03135226
137	0x3c9bdb28	0.0190254
138	0xbc38c5cb	-0.011277626
139	0x3cee3db7	0.029082162
140	0xbcb65ff3	-0.022262549
141	0xbc146d2a	-0.00905923
142	0xbb34b282	-0.002757222
143	0x3c4b8f10	0.0124242455
144	0x39d60e04	0.00040827703
145	0x3c64faac	0.01397578
146	0xbcbd20b1	-0.023086878
147	0xbd103ba5	-0.03521313
148	0xbb9070d2	-0.0044079805
149	0xbba42533	-0.0050093173
150	0xbd473077	-0.048630204
151	0x3b8f2193	0.004368016
152	0xbbc9415c	-0.0061418246
153	0xbd23b2f9	-0.039965604
154	0xbc913c84	-0.017729051
155	0xbca38d6d	-0.019964898
156	0xbb850395	-0.004059265
157	0x3c898682	0.016787771
158	0x3cd52d2f	0.026022522
159	0xbc88ec8b	-0.016714355
160	0x3ae0b900	0.0017144978
161	0x3cc07191	0.023491653
162	0x3b96abc2	0.004598112
163	0xbd268c4b	-0.040661138
164	0xbc3ec6ac	-0.011644047
165	0xbc56d69c	-0.01311269
166	0xbccf4867	-0.025303079
167	0x3a4bc175	0.0007772663
168	0xbce8ffaa	-0.028442223
169	0x3c50bcac	0.012740295
170	0x3d04341c	0.032276258
171	0xbc8e87e6	-0.017398786
172	0xbcfa7e58	-0.030577824
173	0x3c67b800	0.01414299
174	0xbc9f3919	-0.019436406
175	0xbc9d8e68	-0.019232944
176	0xbc17895a	-0.009249056
177	0xbca9c916	-0.020725768
178	0xba751c1c	-0.0009350197
179	0xbbe0013e	-0.0068360856
180	0xbd24794f	-0.04015475
181	0xbb7feee1	-0.0039052295
182	0xbcca5200	-0.024697304
183	0x3b01c912	0.0019803685
184	0x3c499184	0.01230276
185	0x3cf61177	0.030037625
186	0x3d2cbed6	0.042174183
187	0x3cb5471a	0.02212863
188	0x3abe1d24	0.0014504534
189	0xba74990a	-0.0009330666
190	0xbd0b230b	-0.033968966
191	0xbc89e5e5	-0.016833255
192	0x3c2f2c06	0.010691648
193	0x3ccef676	0.025264006
194	0x3ccc75c3	0.024958497
195	0xbc407574	-0.011746753
196	0x3ceec9d4	0.029148974
197	0x3c14ec9f	0.009089618
198	0xbbf92782	-0.0076035867
199	0x3c7613aa	0.015019337
200	0xbc0aac05	-0.008463864
201	0xbbf4565e	-0.007456585
202	0xbbcd4380	-0.00626415
203	0xbd34ba3c	-0.04412292
204	0xbc1d6f70	-0.009609088
205	0xbd2a49fa	-0.041574456
206	0xbd3d0291	-0.046145026
207	0xbce90253	-0.028443491
208	0xbd068255	-0.032839138
209	0xbd044432	-0.0322916
210	0xbc9b3849	-0.018947737
211	0x3d0bb3a9	0.034106884
212	0x3a6ed0a7	0.0009110071
213	0x3cfa9f2f	0.030593483
214	0x3d41ac0d	0.04728322
215	0x3cd88dd5	0.026434818
216	0xbcaf68a8	-0.021412209
217	0xbc989538	-0.01862584
218	0x3cbdac04	0.023153313
219	0xbc490ee3	-0.012271616
220	0x3c54db28	0.012991704
221	0xbd162d8e	-0.036664538
222	0xbbb75e6b	-0.0055959723
223	0xbc297910	-0.010343805
224	0x3c04e1cf	0.008110478
225	0x3d08ada5	0.033368725
226	0xbcdc29c7	-0.02687539
227	0xbb91cab3	-0.0044492125
228	0x3c44df17	0.012016079
229	0xbd1def3f	-0.03855824
230	0xbd1e0be1	-0.038585547
231	0x3ac02608	0.0014659772
232	0xbd45ad32	-0.048260875
233	0x3c365434	0.011128474
234	0x3c8d3e84	0.017241724
235	0x3a41e5f2	0.000739663
236	0xbc06482b	-0.008195917
237	0xbc4462f5	-0.011986484
238	0x3ce361fe	0.027756687
239	0xbcd122e3	-0.02552933
240	0xba9e13ff	-0.0012060403
241	0xbc8123f0	-0.015764207
242	0xbc2a969a	-0.010411883
243	0x3d7022fb	0.05862711
244	0x3c712b8c	0.014719855
245	0x3d22fb52	0.03979046
246	0xbc5efb55	-0.013609727
247	0x3bac3d33	0.005256319
248	0xbcd79966	-0.026318263
249	0xbcba4d7c	-0.022742026
250	0x3aed496c	0.0018103546
251	0xbc57ed7b	-0.013179178
252	0xbcd96d4a	-0.02654137
253	0x3c8d41d9	0.017243313
254	0x3c654091	0.013992445
255	0x3c016e99	0.007899904

linear.bias f4 [2]
0	0xbe225648	-0.15853226
1	0x3dce4655	0.100720085
