Week 9 - PCA & Autoencoders/Model/Autoencoder.pth (torch_old, 881981 bytes, 16 tensors)

encoder.0.weight f4 [128, 784]
-0.0038451483 -0.0038454277 -0.003845621 -0.0038456484 -0.003844995 -0.003845255 -0.0038455087 -0.003845721
-0.003845267 -0.0038454742 -0.0038456 -0.003845748 -0.003861967 -0.0038808607 -0.0038442835 -0.0038454277
-0.0038457555 -0.0038452744 -0.0038457536 -0.003845369 -0.0038453257 -0.003844997 -0.0038456433 -0.0038457573
-0.0038457266 -0.0038453564 -0.0038457555 -0.003845652 -0.003845735 -0.0038457313 -0.0038457331 -0.0038453657
-0.0038452386 -0.0038455552 -0.0039060516 -0.0041802037 -0.004296771 -0.0038451795 -0.0028735155 -0.0037201676
-0.004180006 -0.0039760945 -0.0032512688 -0.003932697 -0.003888075 -0.0038386337 -0.003841861 -0.0038451871
-0.003845153 -0.0038462651 -0.0038455636 -0.0038454742 -0.003845695 -0.0038457154 -0.0038454928 -0.0038454537
-0.0038456614 -0.0038453382 -0.0038368693 -0.0038457555 -0.0038766589 -0.0037074327 -0.0028519556 -0.004561757
-0.004476734 -0.001083156 0.0060299165 0.0018267591 -0.0039746324 0.0024848029 -0.0032524473 -0.0017565654
-0.0014845815 -0.004876436 -0.0063160905 -0.004485618 -0.0048579345 -0.006833525 -0.0041660736 -0.0030205566
-0.0038523339 -0.0038451166 -0.0038454146 -0.0038457555 -0.0038456894 -0.0038455334 -0.003826184 -0.003844721
-0.0044434667 0.0029597457 0.0074759587 0.016604267 0.018441109 0.009462544 0.003481779 0.011966155
0.03421292 0.031935252 0.032553073 -0.014938914 -0.038988248 -0.0432482 -0.019970765 -0.013227921
-0.021906987 -0.01303169 -0.0011476895 -0.0018916575 -0.0038630439 -0.0039043555 -0.003889865 -0.0038455403
-0.0038457173 -0.0038235832 -0.0030400667 -0.003287621 -0.0048586633 -0.0022058743 0.0028484827 0.032947406
0.014888725 -0.009063641 0.052655816 0.10729833 0.07135931 0.060479857 0.054427873 0.008535465
-0.013695661 -0.02635414 0.013062707 0.044191565 0.015188129 -0.015892899 -0.023473008 -0.007954411
0.0013778629 -0.003275699 -0.0038966474 -0.0040159645 -0.0038453382 -0.0038456866 -0.0037378985 0.0044808113
0.0067030475 0.005819483 0.022931743 0.07308549 0.069314055 0.048902065 0.13343856 0.18816796
0.064545415 0.09936691 -0.009021214 -0.020016443 0.02926906 0.01412349 0.008073109 -0.0026421978
-0.012211127 0.0038026576 -0.03677835 -0.025077801 -0.008355537 -0.0018554401 -0.0031712898 -0.004711637
-0.0038455161 -0.0038364811 -0.0040265913 -0.0044786013 0.016684677 0.034550767 0.05180247 0.09370376
0.124894194 0.13334768 0.15308654 0.13575311 0.15037328 0.1383014 0.12596111 0.09861298
0.039537374 0.055129282 0.04480723 0.044202052 -0.0099631455 -0.03870245 0.003168587 -0.014628875
-0.023595672 -0.02315096 -0.017457152 -0.005398314 -0.0038457173 -0.0042289807 -0.0048775794 -0.012568951
0.037139855 0.038415454 -0.0005205747 0.045122825 0.034755412 0.1252816 0.10165831 -0.0026628834
-0.054088596 -0.012912945 0.10763755 -0.0133073 -0.03214443 0.03704753 0.056102674 0.06825731
0.0018870487 -0.008097506 -0.032698296 -0.029941728 -0.040415168 -0.041955516 -0.023266112 -0.004460971
-0.0038459622 -0.005165496 -0.0067846314 -0.003735464 0.019511225 0.0025735726 -0.045650087 -0.05262662
-0.007043585 0.016999701 -0.064378835 -0.05522775 -0.09388389 -0.05623952 0.008570293 -0.074240886
-0.09436048 -0.06830814 0.05594832 0.124988206 0.008333501 -0.03687695 -0.0035510578 -0.030449552
-0.01829917 -0.033119716 -0.017942593 -0.004180803 -0.0037952904 -0.004442359 -0.010366372 -0.014315494
00000000: e2fe 7bbb 9203 7cbb d006 7cbb 4607 7cbb
00000010: 50fc 7bbb ac00 7cbb ee04 7cbb 7e08 7cbb
00000020: e000 7cbb 5a04 7cbb 7606 7cbb f208 7cbb
00000030: 0e19 7dbb 0a56 7ebb 60f0 7bbb 9203 7cbb
00000040: 1209 7cbb 0001 7cbb 0a09 7cbb 9602 7cbb
00000050: dc01 7cbb 58fc 7bbb 3007 7cbb 1a09 7cbb
00000060: 9608 7cbb 6002 7cbb 1209 7cbb 5607 7cbb
00000070: ba08 7cbb aa08 7cbb b208 7cbb 8802 7cbb
00000080: 6600 7cbb b605 7cbb acfc 7fbb 17fa 88bb
00000090: edcb 8cbb 68ff 7bbb 9751 3cbb 0ece 73bb
000000a0: 6ff8 88bb e649 82bb 3d13 55bb dbdd 80bb
000000b0: 13cf 7ebb 9691 7bbb bbc7 7bbb 89ff 7bbb
000000c0: f6fe 7bbb 9f11 7cbb da05 7cbb 5a04 7cbb
000000d0: 0e08 7cbb 6608 7cbb aa04 7cbb 0204 7cbb
000000e0: 7e07 7cbb 1202 7cbb fc73 7bbb 1209 7cbb
000000f0: 8b0f 7ebb 66f8 72bb e0e7 3abb cb7a 95bb
00000100: 91b1 92bb aff8 8dba 9b96 c53b dd6f ef3a
00000110: a23d 82bb 13d8 223b 0327 55bb 8e3c e6ba
00000120: 4a96 c2ba 83ca 9fbb 35f7 cebb 17fc 92bb
00000130: 4f2f 9fbb c3eb dfbb 8f83 88bb 88f4 45bb
00000140: 7077 7cbb 5afe 7bbb 5a03 7cbb 1209 7cbb
00000150: f607 7cbb 5805 7cbb b7c0 7abb b7f7 7bbb
00000160: 809a 91bb 4bf8 413b e3f8 f43b ac05 883c
00000170: cf11 973c c908 1b3c 8f2e 643b b10d 443c
00000180: d922 0c3d 8ace 023d 5f56 053d 59c2 74bc
00000190: 24b2 1fbd 0625 31bd bb99 a3bc ecb9 58bc
000001a0: 4876 b3bc df82 55bc 126e 96ba 7ef1 f7ba
000001b0: 1f2b 7dbb 37e0 7fbb 1bed 7ebb 7605 7cbb
000001c0: 6e08 7cbb 1595 7abb db3b 47bb 2175 57bb
000001d0: 6c35 9fbb 6e90 10bb 9cad 3a3b dcf3 063d
000001e0: d7ef 733c aa7f 14bc a0ad 573d 3abf db3d
000001f0: d424 923d bab9 773d c3ef 5e3d 56d8 0b3c
00000200: c463 60bc a3e4 d7bc f704 563c 3702 353d
00000210: a1d7 783c d331 82bc 774a c0bc 3853 02bc
00000220: 6899 b43a 1cad 56bb e55e 7fbb 5a98 83bb
00000230: 1202 7cbb ea07 7cbb 88f7 74bb c5d3 923b
00000240: 3da5 db3b 5db1 be3b 5adb bb3c d8ad 953d
00000250: 87f4 8d3d 884d 483d 1ea4 083e 1aaf 403e
00000260: 6330 843d e180 cb3d b7cd 13bc 86f9 a3bc
00000270: abc5 ef3c 3666 673c 1345 043c b928 2dbb
00000280: 2e11 48bc 0236 793b e5a4 16bd f66f cdbc
00000290: aae5 08bc 3d32 f3ba 6ad5 4fbb 1364 9abb
000002a0: 0e05 7cbb 796d 7bbb 7ff1 83bb 3bc1 92bb
000002b0: 4eae 883c 1b85 0d3d d42e 543d c2e7 bf3d
000002c0: 87c8 ff3d 4b8c 083e b8c2 1c3e dd02 0b3e
000002d0: 74fb 193e e29e 0d3e f3fb 003e 9af5 c93d
000002e0: f1f1 213d 3ecf 613d c987 373d 360d 353d
000002f0: 763c 23bc 7686 1ebd 12a8 4f3b f3ad 6fbc
00000300: b64b c1bc 15a7 bdbc 4d02 8fbc 57e4 b0bb
00000310: 6e08 7cbb 4393 8abb 1ad4 9fbb 00ee 4dbc
00000320: f61f 183d 8659 1d3d 2d77 08ba b6d2 383d
00000330: b15b 0e3d d249 003e 3b32 d03d c583 2ebb
00000340: 018c 5dbd d190 53bc 1371 dc3d dd06 5abc
00000350: e1a9 03bd 27bf 173d ebcb 653d 7dca 8b3d
00000360: d956 f73a 67ab 04bc a6ee 05bd 5b48 f5bc
00000370: 608a 25bd 8cd9 2bbd 9398 bebc 562d 92bb
00000380: 8a0c 7cbb 5243 a9bb 9d51 debb b0ce 74bb
00000390: 01d6 9f3c 62a9 283b 96fb 3abd 038f 57bd
000003a0: e0cd e6bb f542 8b3c 0dd9 83bd 7e36 62bd
000003b0: 3246 c0bd 695b 66bd 6a6a 0c3c 9b0b 98bd
000003c0: 1140 c1bd 23e5 8bbd 112a 653d d1f9 ff3d
000003d0: 3d89 083c 490c 17bd ddb8 68bb 5771 f9bc
000003e0: 24e8 95bc 8aa8 07bd 58fc 92bc 1eff 88bb
000003f0: 68ba 78bb 3591 91bb b7d7 29bc 898b 6abc

encoder.0.bias f4 [128]
0.003845598 -0.011242988 0.0006672696 -0.018433116 -0.017524738 -4.1623912e-07 -0.009824201 0.0039976486
-3.0987675e-09 -0.04862946 -5.940602e-11 -0.019809563 -0.012951254 -0.004557777 -0.03572324 -3.580575e-16
-4.1105545e-07 -0.02123009 -0.016042545 -0.029584108 -6.6581567e-09 -3.6326787e-07 -0.00027224497 -2.2581362e-10
0.02124106 0.008976212 -0.027198112 -0.028604811 -3.3306246e-06 -0.0021960528 0.02316392 0.0009087686
-0.0044382773 -0.00017851166 -0.0033114874 -0.023407327 -0.00056678354 -0.045467973 -0.022792233 -0.0053552985
-0.059217475 -0.016358979 -0.03625051 -0.021049924 -0.036396712 -2.6252605e-05 -2.7738812e-07 0.0087431995
-0.010944071 -0.042285275 0.037618097 -0.0018617637 0.017399905 -0.009295646 -0.015221305 -0.03479335
-0.0016034778 -9.281508e-06 -5.022555e-12 -0.039308257 -0.0104567595 -0.02354348 -0.0057459567 -0.024597408
0.0027369484 -0.0025156531 0.0069905003 -0.0012773748 -0.009802106 -0.017454222 -3.80842e-14 -0.01739197
0.011537515 -1.8812542e-11 -0.018904613 -0.006277855 -0.00037211875 -0.012783312 -0.009525584 0.0027004865
-0.029525358 0.008483595 -1.252229e-13 -0.006676164 -5.67603e-08 -0.000909644 -3.1800503e-11 -0.030672282
0.0012758038 -0.034969863 -0.014524684 -0.016264973 -0.016179439 0.009449653 -0.016775755 -0.029297223
-0.016382677 -0.036068495 0.049395185 0.006714286 -0.0038608261 -0.059994347 -0.0019169087 -0.034740023
0.0114664985 -0.031499755 -0.016815078 -0.031117417 -0.004585144 -0.02439198 -0.036950547 -0.0016773152
-0.01566773 -0.010181593 -1.6085716e-05 -0.00012423107 -0.00045714516 -0.00860317 -4.5901484e-07 -0.0073451223
-0.0016478463 -1.125481e-05 -1.2885644e-14 -0.033742283 -0.0002467564 -0.008482261 -3.3597797e-19 -0.006854168
00000000: 6e06 7c3b 8234 38bc b4eb 2e3a 0c01 97bc
00000010: 0a90 8fbc 7877 dfb4 b0f5 20bc b5fe 823b
00000020: 18f2 54b1 af2f 47bd 9ea2 82ae aa47 a2bc
00000030: 7f31 54bc 6859 95bb 8852 12bd f667 cea5
00000040: 08af dcb4 baea adbc a86b 83bc 5f5a f2bc
00000050: c4c5 e4b1 2807 c3b4 1abc 8eb9 e248 78af
00000060: bb01 ae3c f610 133c 93ce debc a354 eabc
00000070: b283 5fb6 a7eb 0fbb 43c2 bd3c 6e3a 6e3a
00000080: f86e 91bb dc2e 3bb9 8a05 59bb b9c0 bfbc
00000090: 3394 14ba a03c 3abd c7b6 babc 807b afbb
000000a0: 068e 72bd 4403 86bc 6a7b 14bd e470 acbc
000000b0: b814 15bd 0a39 dcb7 efeb 94b4 a33f 0f3c
000000c0: c34e 33bc 5333 2dbd 6f15 1a3d 6c06 f4ba
000000d0: 3f8a 8e3c c44c 18bc c862 79bc 7983 0ebd
000000e0: c92b d2ba c6b7 1bb7 27b7 b0ac b201 21bd
000000f0: d452 2bbc 42de c0bc 9448 bcbb 8180 c9bc
00000100: 605e 333b a8dd 24bb 9110 e53b 966d a7ba
00000110: 0399 20bc 28fc 8ebc 1884 2ba9 9b79 8ebc
00000120: d807 3d3c 147a a5ad d9dd 9abc 77b6 cdbb
00000130: ef18 c3b9 1971 51bc 3211 1cbc a5fa 303b
00000140: 2adf f1bc c7fe 0a3c 0bfd 0caa b9c3 dabb
00000150: 9cc8 73b3 2d75 6eba 2fdc 0bae 7044 fbbc
00000160: df38 a73a 8f3c 0fbd f1f8 6dbc 1f3e 85bc
00000170: be8a 84bc b8d2 1a3c 4f6d 89bc bb00 f0bc
00000180: f734 86bc 8fbc 13bd 9b52 4a3d 8303 dc3b
00000190: ea05 7dbb a2bc 75bd c840 fbba 8e4b 0ebd
000001a0: fbdd 3b3c e305 01bd c6bf 89bc f4e9 febc
000001b0: fa3e 96bb b1d1 c7bc 7559 17bd 5cd9 dbba
000001c0: 9c59 80bc b2d0 26bc d0ef 86b7 0644 02b9
000001d0: fcac efb9 4ff4 0cbc 856e f6b4 5aaf f0bb
000001e0: 8cfc d7ba 0ad3 3cb7 8b20 68a8 5935 0abd
000001f0: 155f 81b9 2ef9 0abc 8e53 c6a0 ee98 e0bb

encoder.2.weight f4 [64, 128]
-0.0009749947 -7.349518e-05 0.003342042 -8.581604e-10 -9.489265e-13 -4.780975e-38 6.239205e-38 -0.00013532667
5.296436e-38 -9.24008e-17 2.813285e-38 -2.589404e-07 -2.0373511e-06 -0.00065770926 -1.9722235e-08 4.4427108e-38
6.464989e-38 -9.2035334e-05 -9.221971e-12 -0.001601012 -6.1917303e-38 3.7543947e-38 -2.0876854e-38 2.811067e-38
-0.0063929847 -0.0002982124 -8.719498e-39 -2.3482493e-05 -1.8255685e-38 -1.1050317e-38 -0.0018713188 -0.002077125
-0.0023804812 -1.1171725e-27 -0.0050532506 -6.226e-13 5.131952e-38 -4.0789985e-09 -1.3968831e-06 -1.6978265e-05
-0.0002813477 -2.437327e-05 -0.00016444108 -7.376508e-05 -1.39739095e-05 -5.557604e-39 -4.1281782e-38 -0.0015029692
5.272912e-38 -5.3349586e-06 -0.018319126 -0.0001006542 -0.00022313619 -3.0438237e-06 -4.5418627e-08 2.565823e-38
5.8540645e-38 2.44314e-39 4.9542946e-38 -3.9402178e-08 -3.7487312e-38 -1.2494921e-25 2.7194785e-05 3.276736e-05
-0.0003008517 -0.0017177014 -0.0002099547 4.3804806e-38 -1.6111656e-07 -0.006546759 3.321158e-38 -4.744049e-06
-0.00029474578 1.7597304e-38 -3.9072383e-14 4.59166e-05 3.952504e-38 -7.7113313e-19 -1.4227839e-38 7.21437e-05
2.1013243e-06 -1.0807139e-06 2.66889e-38 -0.0012572244 -1.1947516e-38 2.8026356e-38 2.403059e-38 -3.006322e-09
-0.006052376 -3.1192589e-09 -0.000462091 -1.2567084e-38 -0.00031517836 -0.009421109 -2.007962e-06 7.987038e-39
-3.1263214e-06 -0.00024105281 -0.018727275 -0.0005879036 -6.503583e-38 6.154412e-38 -1.2259211e-05 -4.6890347e-10
-2.6453738e-05 -0.00025015353 -5.9802034e-05 -0.0069142226 -0.00012288007 0.00020565456 2.7043278e-38 1.4758946e-38
1.7499064e-09 -5.0649836e-05 1.881797e-38 -1.0761476e-38 4.8344007e-38 4.5370547e-38 2.5778382e-38 -0.0017909274
0.0010557552 2.220914e-38 -1.5087388e-38 -1.174386e-18 -1.3052728e-38 -1.3470253e-38 1.1004052e-38 -0.0022390692
-0.004910664 0.07422108 -0.13116553 0.17663231 0.053420562 0.00083018 -0.009575229 0.030738484
0.011063838 0.01402021 -5.289976e-07 -0.08693923 -0.07020624 -0.21335842 -0.25494823 -0.0010252737
-0.00016535801 -0.19163552 0.104685925 0.044127278 -0.004781918 0.00014372695 0.0063503226 0.0009975058
-0.26626083 -0.12714724 -0.20496109 -0.0059645763 0.04991347 0.025178134 -0.42779803 -0.04517063
0.16193922 -3.2733022e-12 3.5491947e-05 -0.019604009 -0.00024717167 0.19936079 0.047903337 0.23232368
-0.015980113 0.3309995 -0.17630456 0.29180172 -0.00416144 0.0057897763 -0.019212715 -0.29183316
0.090072 0.13563639 0.047042206 -0.05319361 -0.16104886 -0.17171173 -0.15054892 0.021903902
-0.00097431644 -1.0075564e-22 0.004379817 0.18509734 -0.034703508 0.07460041 -0.017826347 0.21679202
-0.08611277 0.108166404 0.07879232 0.011095559 0.33803466 -0.40754136 0.020725258 0.023601899
0.073686995 0.006369095 0.014936165 0.114574194 -0.011309655 -0.050198056 -0.0009826624 0.15100187
0.11162877 -0.093633145 -6.046285e-11 -0.10372932 0.01731159 0.021353366 -0.0006236298 -0.12262909
0.0017663242 0.0062375683 0.07939499 -0.029544028 -0.15459582 -0.0026874724 0.017355744 0.12937436
-0.01213696 -0.011855011 -0.12823284 -0.0575684 0.03584659 0.7034315 -0.45100188 -0.08425907
-0.055325516 -0.007301172 0.09933285 -0.17326568 -0.1787588 -0.08017133 0.45210516 0.015785655
0.20152716 0.021134172 -0.033276107 -0.0070696985 0.0563439 0.056777675 0.0027102097 0.18832365
-0.2514961 -1.0487299e-05 0.008785725 -0.028825343 -0.056395367 -0.0031151928 -0.0010034974 -0.20010544
00000000: c996 7fba 6d21 9ab8 2906 5b3b abe3 6bb0
00000010: ae8c 85ab 8826 8281 ead8 a901 7ae6 0db9
00000020: c62e 9001 ce0f d5a4 782b 1901 7f04 8bb4
00000030: 6db9 08b6 1f6a 2cba a769 a9b2 5ae2 7101
00000040: 66fe af01 1803 c1b8 113c 22ad 0cd9 d1ba
00000050: 108e a881 a068 4c01 2d54 e380 8e0c 1901
00000060: 3e7c d1bb 6459 9cb9 6af2 5e80 45fc c4b7
00000070: 6cc9 c680 ca53 7880 0a47 f5ba 6020 08bb
00000080: d901 1cbb e705 b192 bd95 a5bb 0f3f 2fab
00000090: 7cb4 8b01 4027 8cb1 8a7c bbb5 8c6c 8eb7
000000a0: d981 93b9 3375 ccb7 d16d 2cb9 53b2 9ab8
000000b0: 7c71 6ab7 5784 3c80 68c2 6081 47ff c4ba
000000c0: d58a 8f01 f202 b3b6 fe11 96bc 5016 d3b8
000000d0: aaf9 69b9 7e44 4cb6 4f12 43b3 5ab2 0b01
000000e0: e05c 9f01 7b9a 1a00 65de 8601 273b 29b3
000000f0: b019 4c81 fcad 1a96 5b20 e437 af6f 0938
00000100: a2bb 9db9 7f24 e1ba 4927 5cb9 fd7e 6e01
00000110: 62ff 2cb4 3286 d6bb 30d2 3401 122f 9fb6
00000120: 1c88 9ab9 209e bf00 64f7 2fa9 9396 4038
00000130: de31 5701 2c99 63a1 6ded 9a80 db4b 9738
00000140: 7a04 0d36 0c0d 91b5 e64e 1101 73c9 a4ba
00000150: d018 8280 0a97 1801 c1d5 0201 c797 4eb1
00000160: 0253 c6bb 955a 56b1 ce44 f2b9 ebd7 8880
00000170: 863e a5b9 ff5a 1abc 86c0 06b6 9df8 5600
00000180: cbcd 51b6 1fc3 7cb9 f169 99bc 8b1d 1aba
00000190: 5c0b b181 fe89 a701 e9ac 4db7 26e4 00b0
000001a0: f8e8 ddb7 0a27 83b9 f2d3 7ab8 b490 e2bb
000001b0: 5ed9 00b9 faa4 5739 d43c 1301 f0b5 a000
000001c0: 5c81 f030 d970 54b8 d8e8 cc00 9e2e 7580
000001d0: db9a 8301 5005 7701 d259 0c01 8dbd eaba
000001e0: 4461 8a3a 0cd6 f100 8049 a480 0c4f ada1
000001f0: b221 8e80 96ad 9280 d2d2 7700 59bd 12bb
00000200: a3e9 a0bb 3901 983d 4250 06be 1adf 343e
00000210: 85cf 5a3d 70a0 593a 6ce1 1cbc 46cf fb3c
00000220: 1a45 353c 06b5 653c 7000 0eb5 320d b2bd
00000230: 4ac8 8fbd a17a 5abe 9388 82be 7a62 86ba
00000240: f463 2db9 1a3c 44be 9365 d63d cebe 343d
00000250: a3b1 9cbb 69b5 1639 5e16 d03b bebe 823a
00000260: 5753 88be e332 02be 52e1 51be 7e72 c3bb
00000270: 1172 4c3d 6042 ce3c 5808 dbbe d704 39bd
00000280: 65d3 253e 9256 66ac 30dd 1438 9698 a0bc
00000290: d296 81b9 3c25 4c3e 4a36 443d 42e6 6d3e
000002a0: bae8 82bc c478 a93e 2f89 34be 0967 953e
000002b0: b05c 88bb 2ab8 bd3b fc63 9dbc 286b 95be
000002c0: ab77 b83d 44e4 0a3e 54af 403d 8be1 59bd
000002d0: fee9 24be 33d5 2fbe 7f29 1abe d06f b33c
000002e0: 4569 7fba b89c f39a 9184 8f3b 288a 3d3e
000002f0: 4425 0ebd 1ac8 983d 8f08 92bc bafe 5d3e
00000300: e45b b0bd 5986 dd3d de5d a13d 26ca 353c
00000310: e112 ad3e 43a9 d0be 04c8 a93c c558 c13c
00000320: 35e9 963d d7b3 d03b d1b6 743c e0a5 ea3d
00000330: 224c 39bc 7a9c 4dbd aecc 80ba 3ca0 1a3e
00000340: a09d e43d bcc2 bfbd 8ff5 84ae 0a70 d4bd
00000350: 09d1 8d3c 41ed ae3c 167b 23ba f624 fbbd
00000360: 0184 e73a 8464 cc3b d799 a23d 5106 f2bc
00000370: 5e4e 1ebe 4e20 30bb a22d 8e3c b67a 043e
00000380: 1ada 46bc 853b 42bc 784f 03be d8cc 6bbd
00000390: e0d3 123d 1614 343f b8e9 e6be 0590 acbd
000003a0: 029d 62bd ab3e efbb 056f cb3d 8f6c 31be
000003b0: 8c0c 37be de30 a4bd 547a e73e eb50 813c
000003c0: 235d 4e3e 9221 ad3c 874c 08bd eea8 e7bb
000003d0: dcc8 663d b58f 683d c69d 313b ead7 403e
000003e0: 19c4 80be 9bf2 2fb7 00f2 0f3c 2023 ecbc
000003f0: d4fe 66bd 4328 4cbb c987 83ba 71e8 4cbe

encoder.2.bias f4 [64]
-5.788528e-08 -0.0041017397 1.4686577e-31 -0.07295965 0.16408941 -1.2170208e-38 -3.2416546e-38 6.713426e-38
-0.052530386 0.02176341 0.025450211 -0.012790321 -6.2049457e-26 0.042867143 -0.010913092 -5.801011e-38
-1.1669708e-38 -8.777246e-05 -0.013869628 -0.031242993 -3.4891446e-38 -2.2615873e-38 0.02173366 -0.000105711515
0.044499807 0.040311676 0.10989676 -1.1169849e-11 -2.2999138e-38 -2.4136798e-05 0.19049719 0.11302486
0.12580444 0.06844913 3.8954808e-38 -2.5629598e-38 0.017958017 -2.7270978e-38 0.189217 -0.020165155
1.0405881e-38 -0.008394312 -2.8581405e-38 0.08572778 -6.767096e-39 0.10510407 0.025494734 -0.05673788
-0.034682814 0.08958532 -0.0009625554 1.2980417e-05 0.2239805 2.4942468e-38 -0.00036005804 -0.02314831
0.008625752 0.13456963 0.18782999 0.024585944 -2.486692e-39 -0.033115603 -2.8244914e-38 -0.0010301267
00000000: 8a9d 78b3 e367 86bb 86a4 3e0c de6b 95bd
00000010: 0e07 283e 9785 8480 127e 3081 c0c1 b601
00000020: 1a2a 57bd 2e49 b23c f67c d03c 7f8e 51bc
00000030: 84a0 9995 7595 2f3d d3cc 32bc 25eb 9d81
00000040: 6612 7f80 7b12 b8b8 703d 63bc 4ef1 ffbc
00000050: 94f7 3d81 da43 f680 ca0a b23c 70b1 ddb8
00000060: 6e45 363d db1d 253d 8d11 e13d 8780 44ad
00000070: 3d70 fa80 6179 cab7 b211 433e 9479 e73d
00000080: e1d2 003e 0f2f 8c3d 1417 5401 728a 0b81
00000090: b11c 933c 327a 1481 1ac2 413e 6531 a5bc
000000a0: 5d4f 7100 4c88 09bc aa9c 1b81 0c92 af3d
000000b0: e9af 4980 cd40 d73d 55da d03c fb65 68bd
000000c0: 910f 0ebd 8278 b73d 0054 7cba 77c6 5937
000000d0: 255b 653e bacc 0701 2cc6 bcb9 86a1 bdbc
000000e0: 0753 0d3c 9fcc 093e 8156 403e 7668 c93c
000000f0: e313 1b80 3aa4 07bd aac7 1981 5105 87ba

encoder.4.weight f4 [12, 64]
0.0086480575 0.4627935 -1.853515e-31 -0.12878576 0.24514775 -4.6711157e-05 -7.550509e-06 -9.241446e-07
0.051064596 0.10884973 0.3354829 0.019247252 -0.0027476999 0.6155744 -0.008069818 -3.9947462e-10
2.130232e-39 -0.0022700569 0.023861518 0.037557527 5.5447607e-23 -1.1978547e-25 -0.019895777 -0.000512495
0.17077886 -0.039028008 0.24632676 -0.0013934104 4.5827173e-07 0.0041070846 -0.020430533 -0.016219433
-0.024722377 0.1930345 -1.68025e-06 2.247977e-29 -0.06232618 5.0614917e-09 0.155853 0.016227158
3.242683e-39 0.093263425 7.143857e-10 -0.059144646 -4.3860453e-24 0.670612 0.12964138 0.0029679113
-0.041572 0.39245993 0.001593548 2.2958624e-05 -0.03901024 -2.1907481e-38 -0.032668643 -0.17019127
-0.028144598 0.033524 0.10056226 0.023179626 4.336267e-15 0.099633254 8.79145e-39 0.0045987554
0.021974113 0.091209196 4.5946553e-08 -0.5984094 0.74552923 0.00930779 -0.0021293713 -0.0006287239
-0.101205885 0.031344518 -0.42710945 -0.030269202 3.6278739e-06 -0.031069476 0.03217833 6.005098e-06
-1.606764e-39 -0.032112733 -0.09779845 -0.008209091 -1.5426313e-14 0.00058417075 -0.063182786 0.008507735
-0.1431921 -1.2357194 0.06894162 0.009041124 -0.00042911532 0.039523203 -2.0853446 -1.8135886
-1.5225449 0.22934993 3.1205462e-07 -1.9587019e-19 -0.16498882 1.699781e-06 0.1410877 -0.026310595
-5.2934307e-18 -0.029933587 6.916822e-07 0.03703423 -9.705787e-10 -0.04692555 -0.14611523 0.010233938
0.03945102 -0.02647623 0.018229404 1.218998e-05 0.089570135 6.9319284e-13 0.005378063 -0.4731563
-0.11186511 0.1628618 0.11804716 -0.0024913372 -2.5443585e-13 -0.12119627 1.0005055e-11 0.038575627
-0.007860739 0.50806373 -7.724335e-31 -0.15842164 0.29312894 -0.0019366062 0.00035220617 5.1494735e-06
-0.14777055 0.31604528 0.3445858 0.021779282 3.1523257e-09 -0.026735108 -0.009538196 -1.6326758e-13
8.512745e-39 0.028054787 0.064317495 0.016016316 -9.081008e-22 -2.2999368e-05 0.13550961 -0.0056271637
0.03608143 0.10223375 0.07541468 0.0024745027 0.0002042712 -0.020368207 0.28559208 -0.09024714
0.21405807 0.19566698 -6.756606e-07 -8.614491e-39 0.100400105 -3.152138e-10 -0.15183787 0.029558538
8.968592e-31 0.0008159489 -1.0236154e-11 0.59922725 -9.029401e-19 0.37233052 -0.026609262 -0.053272307
-0.03675555 0.012828913 -0.01238887 5.6180425e-06 0.105492145 1.5653944e-38 0.009140947 -0.095124155
-0.03921319 0.100581914 0.1871378 0.09981241 5.2530092e-20 0.054007202 1.1601087e-38 -0.010346342
0.0006249842 -0.11785001 4.303532e-29 -0.4248789 0.080496795 0.00031883054 -6.4376377e-07 3.314744e-19
0.07340178 0.23787291 -0.89531267 -0.023453638 0.00043343645 -0.08546921 0.03537986 1.311087e-12
2.110164e-39 -0.00397096 0.22720638 -0.042842325 1.0085051e-23 1.1199697e-08 0.05372921 -0.004075402
0.12554891 0.09894175 0.15178794 -0.0018615191 -2.6426546e-08 0.020026302 0.07563237 -0.09616119
-0.11910141 0.11645975 2.3817819e-07 -1.9623645e-34 0.22548416 -1.5596411e-14 0.02769959 -0.024300605
5.340171e-38 -0.025672229 1.2141719e-26 0.02755697 1.9415653e-38 0.33471435 0.33370352 -0.07187903
0.038751528 -0.060239285 0.016255446 -3.602722e-06 0.08626276 3.4957318e-38 0.009783893 -0.453733
0.12358258 0.03768799 0.26277444 0.30040413 -7.096e-17 -0.06503524 4.6957793e-27 -0.0005962651
00000000: 95b0 0d3c 45f3 ec3e 9a99 708c 6ae0 03be
00000010: 0308 7b3e b9eb 43b8 615a fdb6 bc12 78b5
00000020: 1c29 513d 9bec de3d 6ac4 ab3e 6aac 9d3c
00000030: c112 34bb 4996 1d3f 4537 04bc 0e9d dbaf
00000040: 3832 1700 3cc5 14bb 3b79 c33c ecd5 193d
00000050: 6810 861a 8849 1496 78fc a2bc f558 06ba
00000060: a7e0 2e3e d5db 1fbd 153d 7c3e 18a3 b6ba
00000070: 6308 f634 b994 863b ef5d a7bc 9ede 84bc
00000080: 9586 cabc d6aa 453e f384 e1b5 d2f8 e30f
00000090: bd49 7fbd 5ae9 ad31 ee97 1f3e d1ee 843c
000000a0: 484f 2300 e500 bf3d 6d5e 4430 a841 72bd
000000b0: 4aad a998 3aad 2b3f b6c0 043e 4a81 423b
000000c0: 6747 2abd 82f0 c83e 99de d03a 4597 c037
000000d0: 34c9 1fbd 258d ee80 8ecf 05bd 9f46 2ebe
000000e0: 808f e6bc 7650 093d 96f3 cd3d 33e3 bd3c
000000f0: 013b 9c27 850c cc3d fcba 5f00 28b1 963b
00000100: 0e03 b43c e3cb ba3d c556 4533 5c31 19bf
00000110: 01db 3e3f b37f 183c ec8c 0bbb f2d0 24ba
00000120: 0845 cfbd 1c63 003d 17ae dabe 1ef7 f7bc
00000130: 6676 7336 6a85 febc 6dcd 033d 667f c936
00000140: 017f 1180 a488 03bd 8e4a c8bd 6c7f 06bc
00000150: a8f2 8aa8 0923 193a fa65 81bd 0764 0b3c
00000160: f3a0 12be 0e2c 9ebf 4431 8d3d 3921 143c
00000170: e2fa e0b9 15e3 213d 4976 05c0 ac23 e8bf
00000180: c0e2 c2bf b5da 6a3e 7688 a734 223e 67a0
00000190: d4f2 28be 0824 e435 4b79 103e 5189 d7bc
000001a0: 0a4b c3a2 4837 f5bc 0aac 3935 34b1 173d
000001b0: 3465 85b0 0135 40bd 3b9f 15be 3fac 273c
000001c0: 6597 213d aee4 d8bc d555 953c 9183 4c37
000001d0: 8c70 b73d cf1d 432b 763a b03b 8b41 f2be
000001e0: 8919 e5bd 3ec5 263e b6c2 f13d b445 23bb
000001f0: 123c 8faa c035 f8bd c302 302d 7a01 1e3d
00000200: 54ca 00bc 7710 023f 44ab 7a8d 4839 22be
00000210: ff14 963e b9d5 fdba 50a8 b839 a4c9 ac36
00000220: 2a51 17be b0d0 a13e 8d6d b03e 776a b23c
00000230: 4da0 5831 9603 dbbc 1846 1cbc add2 37aa
00000240: 12b2 5c00 27d3 e53c e4b8 833d a634 833c
00000250: 733a 899c c4ee c0b7 08c3 0a3e 1264 b8bb
00000260: 1fca 133d ee5f d13d 0373 9a3d 442b 223b
00000270: a231 5639 3adb a6bc 2039 923e 7ed3 b8bd
00000280: 0a32 5b3e ed5c 483e 0b5f 35b5 b2cd 5d80
00000290: 929e cd3d 664a adaf 637b 1bbe bf24 f23c
000002a0: 1386 910d 67e5 553a 8a13 34ad f566 193f
000002b0: 1d40 85a1 1ba2 be3e abfb d9bc 1034 5abd
000002c0: fd8c 16bd 5c30 523c b0fa 4abc 9e82 bc36
000002d0: 440c d83d d474 aa00 e9c3 153c 74d0 c2bd
000002e0: 039e 20bd e4fd cd3d 0da1 3f3e 736a cc3d
000002f0: fc10 781f a836 5d3d 1c53 7e00 b483 29bc
00000300: fbd5 233a 595b f1bd 0a37 5a10 ba89 d9be
00000310: 81db a43d b628 a739 1ccf 2cb5 ffaa c320
00000320: ac53 963d f594 733e 3633 65bf d821 c0bc
00000330: db3e e339 7b0a afbd 79ea 103d e384 b82b
00000340: 47fa 1600 d41e 82bb caa8 683e 6f7b 2fbd
00000350: c112 4319 ca68 4032 2913 5c3d f38a 85bb
00000360: e58f 003e f9a1 ca3d 4c6e 1b3e 37fe f3ba
00000370: 9700 e3b2 330e a43c 25e5 9a3d 28f0 c4bd
00000380: 71eb f3bd 7382 ee3d ecbd 7f34 e76b 8287
00000390: 52e5 663e e07a 8ca8 40ea e23c 1012 c7bc
000003a0: 8f5f 9101 914e d2bc d47d 7014 28bf e13c
000003b0: f16a d300 ae5f ab3e 30db aa3e 5035 93bd
000003c0: ecb9 1e3d 78bd 76bd 242a 853c 4bc6 71b6
000003d0: 88aa b03d 6453 3e01 9f4c 203c b14f e8be
000003e0: dd18 fd3d b95e 1a3d 5f8a 863e 92ce 993e
000003f0: 649f a3a4 3231 85bd dc04 ba13 ac4e 1cba

encoder.4.bias f4 [12]
0.08497194 0.3611751 0.07325914 0.1499214 -0.08904686 0.15435402 0.32821065 0.03962846
0.15079814 0.15245643 0.27133134 -2.9503308e-10
00000000: c505 ae3d f1eb b83e e308 963d ff84 193e
00000010: 335e b6bd fb0e 1e3e 3a0b a83e 7451 223d
00000020: d46a 1a3e 8a1d 1c3e f1eb 8a3e 3732 a2af

encoder.6.weight f4 [3, 12]
-0.45855016 0.42933825 -0.118603125 0.35382348 0.25003126 0.04937239 1.3430916 -0.02725383
-0.050349142 -0.32811463 -0.03855906 -0.018112205 -0.084006645 -1.3019056 0.41518524 -0.22400981
0.4265816 0.18631303 0.32809073 -0.59904224 0.07062527 0.06463038 0.19164935 0.0073564244
0.18170872 -0.66590756 0.37821516 -0.015804006 -0.7111189 -0.48848835 0.08398382 -0.18572412
-0.3961463 -0.38921627 -0.49857256 -0.00047773338
00000000: 16c7 eabe 39d2 db3e 32e6 f2bd 5a28 b53e
00000010: 1904 803e b43a 4a3d 6dea ab3f 6d43 dfbc
00000020: e73a 4ebd a4fe a7be 1bf0 1dbd 0c60 94bc
00000030: ad0b acbd d8a4 a6bf 2993 d43e d462 65be
00000040: e768 da3e d8c8 3e3e 82fb a73e d55a 19bf
00000050: fba3 903d ef5c 843d ba3f 443e 290e f13b
00000060: da11 3a3e eb78 2abf 6ba5 c13e 6777 81bc
00000070: e30b 36bf 251b fabe b6ff ab3d 772e 3ebe
00000080: b0d3 cabe 5b47 c7be e744 ffbe 4a78 fab9

encoder.6.bias f4 [3]
-0.08785475 0.2488857 -0.032991774
00000000: 31ed b3bd e5db 7e3e 6222 07bd

decoder.0.weight f4 [12, 3]
-1.046412 -0.09194961 -0.21746857 0.7585073 1.1471096 -0.119305395 0.833633 0.13805817
-0.097897395 1.0419858 -0.21264106 0.20884182 -0.5298402 1.3099622 -0.29842377 -0.106520504
0.19448608 -0.38327855 -0.12261127 0.10227059 -0.5854206 -0.24180543 0.01139368 -0.27884042
0.12131921 -0.45121738 0.456897 -0.09034874 -0.96676916 -0.4503085 -0.28371707 0.8474586
0.2063868 1.0401385 0.0003017473 -0.53424627
00000000: d4f0 85bf 1450 bcbd 15b0 5ebe 892d 423f
00000010: 7dd4 923f 6356 f4bd f968 553f 1f5f 0d3e
00000020: 6e7e c8bd ca5f 853f 94be 59be a1da 553e
00000030: 9ba3 07bf d7ac a73f 00cb 98be 6c27 dabd
00000040: 5c27 473e 163d c4be 9e1b fbbd 3e73 d13d
00000050: 20de 15bf d89b 77be 8fac 3a3c 2cc4 8ebe
00000060: 3576 f83d f705 e7be 67ee e93e c308 b9bd
00000070: 2f7e 77bf d68e e6be 5d43 91be 0cf3 583f
00000080: 1057 533e 4223 853f d633 9e39 5dc4 08bf

decoder.0.bias f4 [12]
0.52777684 0.25094253 1.9561334 -0.23862416 -0.18232419 2.6096315 -1.0901207 -1.3576547
1.0005956 0.95872587 0.51119334 -0.96167696
00000000: 621c 073f 8a7b 803e 9462 fa3f e459 74be
00000010: 31b3 3abe 3404 2740 1389 8bbf a1c7 adbf
00000020: 8413 803f 0f6f 753f 91dd 023f 7630 76bf

decoder.2.weight f4 [64, 12]
-0.013173471 -0.15497826 -0.5846801 -0.0014846048 0.09039566 0.6263075 -0.15086204 -0.18659121
0.03239918 0.46091303 -0.64200306 -0.56989074 -0.16777934 -0.24916787 0.47125095 -0.26844963
-0.17339115 0.36195743 0.08871048 0.122882806 0.09678197 -0.31109974 0.055461425 0.02434623
0.20459351 0.21656126 -0.26315165 -0.08239797 0.45179948 0.19311617 -0.17510706 0.03433795
0.021212209 -0.41414368 0.50809014 -0.6038395 0.21306415 0.14784367 -0.87187576 0.51906127
0.050056167 -0.02895195 0.1532644 0.5307488 -0.06689496 0.39327288 -0.07014397 -0.49214515
-4.046041e-05 -9.889012e-05 -1.0806535e-05 -1.0573505e-21 -0.00094176276 -0.0008779594 -0.00031520682 -3.4635534e-08
-2.6025218e-38 -5.5836983e-05 -1.0558751e-08 -0.00017284045 -7.989426e-08 -2.90795e-08 -8.824016e-11 -2.9235845e-38
-2.7699828e-06 -2.354339e-06 -8.121258e-08 -5.7038487e-19 -2.5643333e-38 -2.2398357e-09 -5.0754508e-18 -4.970096e-08
-2.4405848e-18 -7.438905e-09 -2.2626872e-12 -3.071741e-38 -4.037986e-08 -6.7125954e-09 -1.7646294e-10 -6.153011e-38
1.9142607e-38 -3.0397692e-13 -3.5835594e-25 -4.8483213e-09 0.27056345 -0.48141626 0.22677349 -0.305088
-0.23746037 0.12144947 0.23026462 0.25200465 -0.14357428 0.2619393 -0.29690075 0.103087395
0.5658322 -0.019199127 0.19730765 0.44510594 0.19731729 -0.48327637 -0.4380442 0.024916723
-0.13674861 -0.2625532 0.51155865 0.23170243 -3.4862515e-22 -5.6653823e-18 -3.8828108e-38 6.768998e-38
-2.5148794e-12 -1.8066407e-16 -2.089131e-20 -4.1526684e-38 3.8949082e-38 1.600366e-36 -2.3462461e-38 -5.3172813e-29
0.28591558 -0.0024918003 0.30667496 0.12834816 -0.29223078 0.30121744 -0.19184783 -0.22835031
0.409062 -0.29580143 0.106809616 -0.054923832 -0.4416771 0.47366396 0.12364649 -0.25096697
-0.20343113 0.106610745 0.23957059 0.20867024 0.3498921 -0.3520864 0.25477657 0.30747044
-0.67612624 -0.93679625 0.48879743 0.50857806 -0.5493511 -0.43180177 -0.3337246 -0.1554938
0.2998924 0.2860885 0.03443967 0.36160472 -0.1965402 -0.11547016 -0.3311521 -0.16039434
0.160292 0.007209726 0.36554423 0.20753358 0.011357297 -0.15294906 0.0045864903 0.078248374
-0.23098609 0.131931 -0.47217047 0.11951284 0.23157232 0.21157782 0.14119726 0.04938967
-0.21563682 0.14965071 -0.34276482 -0.030376822 -8.320144e-05 -8.541055e-05 -2.326616e-05 -4.27915e-18
-0.0013471859 -0.000843757 -0.00030463657 -3.1457184e-08 -2.46294e-39 -0.00011419854 -6.887176e-07 -0.0002799799
0.29598603 -0.15130413 0.51066256 -0.32848153 0.016795458 0.2395638 -0.24928154 -0.19401665
-0.39047188 -0.27302328 -0.07184112 0.024553796 -0.033246323 -0.08989062 -0.224477 -0.08765759
-0.10385038 0.46751073 -0.014123767 -0.18253565 0.14021862 0.05598204 -0.033158667 -0.040628687
0.018872995 -0.07479851 0.3012246 0.4147927 -0.1003778 0.29697913 0.009629942 -0.111589365
-0.29262823 -0.17636131 0.066395 -0.24312654 0.3562406 -0.30750275 0.31301332 -0.114963934
-0.105303966 0.18179658 0.3842085 0.2864847 -0.2334363 0.02929251 -0.44920346 0.019271446
-2.1348158e-16 -1.3408849e-13 -1.5774478e-14 -5.154971e-38 -2.8236142e-12 -1.3953418e-10 -2.6121245e-12 -2.2630773e-38
-2.1327129e-38 -1.8341233e-16 -2.89195e-38 -3.5268752e-10 0.31869957 -0.3477106 0.15154624 -0.1922462
00000000: 8bd5 57bc 9fb2 1ebe 98ad 15bf 1297 c2ba
00000010: 5c21 b93d b055 203f 947b 1abe c411 3fbe
00000020: 01b5 043d cbfc eb3e 505a 24bf 5ce4 11bf
00000030: 59ce 2bbe dd25 7fbe ce47 f13e 3b72 89be
00000040: 738d 31be 7c52 b93e d7ad b53d fba9 fb3d
00000050: a035 c63d 7748 9fbe 852b 633d bf71 c73c
00000060: f680 513e 3cc2 5d3e d0bb 86be 44c0 a8bd
00000070: 4352 e73e 3fc0 453e 444f 33be f3a5 0c3d
00000080: 3ac5 ad3c a40a d4be 3212 023f 3a95 1abf
00000090: 7d2d 5a3e 5564 173e 4033 5fbf 33e1 043f
000000a0: b207 4d3d a42c edbc 58f1 1c3e 27df 073f
000000b0: 3a00 89bd 105b c93e a4a7 8fbd 73fa fbbe
000000c0: 09b4 29b8 3b63 cfb8 b74d 35b7 44c8 9f9c
000000d0: a1e0 76ba dc26 66ba 5842 a5b9 2cc2 14b3
000000e0: dcb1 0d81 8132 6ab8 e165 35b2 813c 35b9
000000f0: 5592 abb3 7fca f9b2 cb0a c2ae d22c 1f81
00000100: f1e3 39b6 3cff 1db6 1767 aeb3 1059 28a1
00000110: 979d 0b81 9beb 19b1 4740 bba2 c976 55b3
00000120: 5815 34a2 4d99 ffb1 f338 1fac d23d 2781
00000130: 206e 2db3 9da4 e6b1 e705 42af 3a80 a781
00000140: cd71 d000 b11f abaa c4cf dd96 4996 a6b1
00000150: 4b87 8a3e 317c f6be 4f37 683e 7f34 9cbe
00000160: d028 73be 80ba f83d 7dca 6b3e c106 813e
00000170: 2305 13be e81c 863e 6003 98be 7c1f d33d
00000180: 61da 103f 7d47 9dbc 040b 4a3e ede4 e33e
00000190: 8b0d 4a3e 0070 f7be 5447 e0be 281e cc3c
000001a0: d407 0cbe 5f6d 86be 82f5 023f 6743 6d3e
000001b0: 21bb d29b 0604 d1a2 7c66 5381 0845 b801
000001c0: 0af8 30ac 9f4a 50a5 1750 c59e c017 6281
000001d0: 190f 5401 e324 0804 cc7b ff80 21cf 8690
000001e0: 8763 923e 794d 23bb 8004 9d3e b36d 033e
000001f0: 469f 95be 2c39 9a3e c273 44be aad4 69be
00000200: 9370 d13e 4973 97be 00bf da3d d0f7 60bd
00000210: 8023 e2be 1584 f23e 5f3a fd3d be7e 80be
00000220: 4050 50be bc56 da3d fe51 753e a7ad 553e
00000230: 0f25 b33e ab44 b4be 1372 823e c46c 9d3e
00000240: 9c16 2dbf e1d1 6fbf a843 fa3e 2c32 023f
00000250: 46a2 0cbf 1f15 ddbe f3dd aabe c439 1fbe
00000260: 7f8b 993e 317a 923e 9d10 0d3d 4124 b93e
00000270: d641 49be 9f7b ecbd c58c a9be 6a3e 24be
00000280: 9623 243e 913f ec3b 9d28 bb3e af83 543e
00000290: f513 3a3c ae9e 1cbe 454a 963b af40 a03d
000002a0: 9e87 6cbe ec18 073e 54c0 f1be 26c3 f43d
000002b0: 4b21 6d3e dba7 583e 0496 103e d34c 4a3d
000002c0: e6cf 5cbe 093e 193e df7e afbe d0d8 f8bc
000002d0: 6f7c aeb8 711e b3b8 b32b c3b7 6edf 9da2
000002e0: 0f94 b0ba 932f 5dba a1b7 9fb9 8a1b 07b3
000002f0: add1 1a80 e07d efb8 50e0 38b5 44ca 92b9
00000300: 7b8b 973e 78ef 1abe c8ba 023f bb2e a8be
00000310: a196 893c 3650 753e a943 7fbe 4dac 46be
00000320: eeeb c7be b5c9 8bbe 7021 93bd 0b25 c93c
00000330: 4c2d 08bd 9318 b8bd 4cdd 65be d385 b3bd
00000340: 82af d4bd 915d ef3e 5f67 67bc a0ea 3abe
00000350: 7895 0f3e 6c4d 653d 62d1 07bd 446a 26bd
00000360: 8a9b 9a3c f62f 99bd 1c3a 9a3e b55f d43e
00000370: e092 cdbd a60d 983e e7c6 1d3c f788 e4bd
00000380: 5ed3 95be 0f98 34be 1afa 873d 2af6 78be
00000390: 2b65 b63e 0071 9dbe 4843 a03e 3672 ebbd
000003a0: 9ba9 d7bd e228 3a3e fab6 c43e 1fae 923e
000003b0: ed09 6fbe d9f6 ef3c fffd e5be 27df 9d3c
000003c0: a420 76a5 60f8 16aa 7815 8ea8 e854 8c81
000003d0: b6b1 46ac 616b 19af dacf 37ac 636d f680
000003e0: 5c3b e880 c475 53a5 e673 1d81 5be4 c1af
000003f0: 972c a33e 2007 b2be f02e 1b3e 30dc 44be

decoder.2.bias f4 [64]
1.1967173 0.3309513 -0.10001783 -0.6763132 -3.538359e-16 -3.6262118e-38 -2.996462e-38 0.17305908
-0.5178323 3.160437e-39 1.0006317 -0.19966508 0.1296873 0.014049081 -0.16531737 -4.1989827e-16
0.23074503 0.96184564 0.7888319 -0.15944135 -2.5578344e-38 0.9684355 -6.999345e-38 0.022144955
0.3512924 0.039314974 -1.0508989 0.8677732 0.27044594 0.044916052 0.6444752 -0.85926914
-0.26656848 0.7035352 1.2975161 0.042817898 -0.030186618 1.5183886 3.0847035e-38 0.27779913
0.072419286 0.94362164 1.0308162 -0.33162016 -1.2866275 0.45166275 -1.1181315e-23 -0.0081387935
0.5025334 -3.1258095e-22 -0.2981879 -3.0583062e-06 0.42996344 -0.2664575 -4.8044018e-05 -1.6777257e-16
-0.0097312005 0.5503271 -3.3210454e-10 0.9114021 -0.33839673 -1.2251043e-15 -3.3236144e-35 -0.0027391608
00000000: 082e 993f 7372 a93e 26d6 ccbd dd22 2dbf
00000010: f6f8 cba5 046e 4581 9624 2381 6636 313e
00000020: a890 04bf 036a 2200 b314 803f 0175 4cbe
00000030: bfcc 043e 1e2e 663c f548 29be 0c0e f2a5
00000040: 6d48 6c3e 843b 763f e3f0 493f 9844 23be
00000050: 0243 0b81 64eb 773f 518a be81 5669 b53c
00000060: 99dc b33e bd08 213d db83 86bf 6226 5e3f
00000070: e477 8a3e e5f9 373d 54fc 243f 10f9 5bbf
00000080: aa7b 88be e21a 343f 0215 a63f d261 2f3d
00000090: ed49 f7bc 8f5a c23f 7ef2 2701 b03b 8e3e
000000a0: 9050 943d 3091 713f c9f1 833f 1eca a9be
000000b0: 36b0 a4bf 5740 e73e 3147 5899 9358 05bc
000000c0: 07a6 003f 8ff1 bc9b 16ac 98be 4d3d 4db6
000000d0: 2b24 dc3e 1e6d 88be df82 49b8 b96d 41a5
000000e0: 9d6f 1fbc 3de2 0c3f 8f93 b6af a651 693f
000000f0: 5642 adbe 5f8e b0a6 b2b6 3086 7e83 33bb

decoder.4.weight f4 [128, 64]
9.39069e-40 -2.2699459e-38 -2.285554e-12 2.238919e-35 -6.324541e-38 5.9926204e-38 2.509633e-38 -2.331832e-29
2.88229e-39 -4.455557e-38 -3.4899052e-38 -6.243858e-16 1.2238498e-38 -1.1741907e-38 -1.792275e-39 -5.9197226e-38
-1.1676423e-38 -1.2894287e-38 -1.9515808e-38 -3.7316567e-22 2.8131123e-38 -1.3251534e-38 -5.022384e-38 -8.5549766e-29
2.3739503e-37 2.400066e-39 -6.706223e-39 -1.4997529e-38 -2.81808e-14 -2.0883147e-38 -3.35067e-38 -5.597258e-39
-8.08093e-30 1.184117e-39 3.1688796e-36 -4.419391e-24 1.6592667e-38 -8.3136e-39 6.088368e-38 -1.7551599e-11
-5.2119664e-33 -6.733811e-39 -1.824013e-39 -1.1982827e-24 4.627249e-37 -8.732921e-39 3.3838345e-38 1.091165e-38
-1.4035665e-38 -8.837278e-39 -2.866918e-15 -1.8038e-41 2.5989996e-35 -8.8729476e-32 -3.7117568e-38 4.244728e-38
-4.5957097e-38 -1.1137894e-38 -2.0826042e-38 9.47253e-40 -2.404281e-34 5.565683e-38 -6.616308e-38 -3.5954757e-38
-3.5190452e-21 -6.82067e-39 -3.5211975e-13 -1.5526036e-21 -5.5133393e-38 -8.167294e-39 4.5822463e-38 -8.149322e-16
-2.611911e-39 -3.8087e-38 -9.177143e-39 -1.1706995e-14 -1.2862348e-38 -1.1275073e-38 -1.0097428e-24 1.8465451e-38
-5.083015e-39 -8.0801825e-29 -9.96521e-39 -1.4046041e-12 4.920055e-38 -3.59265e-39 3.4411552e-38 -1.6119099e-19
-2.8480596e-21 -7.17671e-40 -1.6003445e-38 -4.239825e-39 -7.1617447e-12 -5.830092e-39 -2.1813196e-38 -7.9098116e-32
-5.3376357e-21 -1.4365594e-27 -6.172017e-23 -1.13524844e-20 1.6504275e-38 1.2374907e-38 2.6327388e-38 -3.646802e-12
-2.0907715e-21 -2.7849342e-27 3.6142878e-35 -7.622654e-18 -1.241186e-25 -1.6415858e-38 3.264655e-38 -5.593842e-38
1.2939426e-35 4.338511e-38 -1.3910699e-14 8.263854e-39 -1.0086858e-21 -4.366276e-23 4.2582548e-38 -3.3488707e-38
-5.07692e-38 -1.4270269e-38 2.5558782e-38 -4.45322e-32 -1.1279228e-17 2.974117e-38 -2.575641e-38 4.9867437e-38
-0.08500228 0.17226495 0.0004410881 0.115206756 -3.4136468e-16 1.6436928e-16 5.29287e-30 0.27697384
0.18625861 -2.1275023e-38 -0.0951084 -0.079947785 -0.16654053 0.03534216 -0.018895075 -2.551774e-09
0.05013733 -0.038124297 0.20533358 0.09798965 -5.7881767e-35 -0.055419162 -7.167939e-22 -0.18867296
-0.15418433 -0.16537777 0.032075066 -0.024407031 -0.19998942 0.03815791 0.08531938 0.27561855
-0.13870646 0.028056633 0.15472727 0.21952161 0.022777267 0.11075043 -1.2198113e-38 0.09914373
0.21380836 0.041582666 0.01781801 -0.07988411 -0.1831338 -0.097245246 -6.2940995e-24 0.013965095
-0.094511 -3.5007493e-24 -0.028548516 5.7205634e-06 0.21030165 -0.06489253 0.00028236798 -3.0329983e-07
0.006646825 0.12367661 9.407885e-07 -0.29966345 -0.28658494 4.7190633e-11 1.7906187e-38 -0.0034888298
0.37761238 -0.027536051 -0.3849168 -0.3460396 2.7567115e-08 1.7970702e-08 1.6706436e-21 0.11831924
-0.4736471 -1.7273198e-38 -0.046849214 0.08588116 0.14733027 0.109444164 0.25440392 -2.0298185e-05
0.048979323 0.1554138 -0.050348427 0.09137777 -1.4562445e-23 0.13639961 4.5957248e-38 -0.10934545
0.1911759 -0.10223213 0.1601626 -0.21352716 -0.11761501 -0.023072014 -0.03448522 -0.105394244
-0.34374058 -0.0046654274 -0.06355557 -0.02869729 0.00272477 0.34503567 4.743923e-18 0.05305935
-0.40051422 -0.031098677 -0.20684347 0.18672545 0.29135954 0.048556414 -2.083512e-12 0.009498961
0.019630069 -9.334817e-25 0.21893035 4.7467263e-05 0.099148475 0.13440365 0.0051967637 9.571978e-07
-0.029858446 -0.23864456 6.035081e-06 0.17753948 0.15743077 4.858183e-11 -1.1446038e-38 0.0047320947
00000000: be39 0a00 db2c f780 e1d4 20ac 2c15 ee05
00000010: 9e2b ac81 7822 a301 2ea3 0801 d279 ec8f
00000020: a762 1f00 6795 7281 2e02 3e81 8af7 33a6
00000030: f443 8500 a9db 7f80 2284 1380 7226 a181
00000040: 1e25 7f80 0768 8c80 2282 d480 9790 e19b
00000050: 1029 1901 e34b 9080 e8b8 8881 f9e4 d890
00000060: 0c90 a102 6822 1a00 3906 4980 024f a380
00000070: 80d4 fda8 b865 e380 866d 3681 e1f2 3c80
00000080: 96e6 238f d6e4 0c00 0bca 8604 87f7 aa98
00000090: 9bad b400 ef86 5a80 bbbd a501 b062 9aad
000000a0: 227f d889 2053 4980 9bdc 1380 de6c b997
000000b0: 0675 1d03 d517 5f80 c53b 3801 3ed1 7600
000000c0: b9d5 9880 bc3a 6080 4d95 4ea7 4832 0080
000000d0: c02f 0a06 da5a e68b 5716 4a81 e01a 6701
000000e0: d836 7a81 eb47 7980 88c6 e280 8e50 0a00
000000f0: b9ca 9f87 2683 9701 f01c b481 9ec1 4381
00000100: 1ef2 849d 4145 4a80 ce39 c6aa 719f ea9c
00000110: 5e16 9681 18ef 5880 317b 7901 62e3 6aa6
00000120: f270 1c80 885d 4f81 24ee 6380 fce4 52a8
00000130: fe0e 8c80 51c6 7a80 0940 9c97 2a12 c900
00000140: 6159 3780 62db cc90 f382 6c80 32ae c5ab
00000150: c7ef 8501 d91e 2780 b45a 3b01 fd4c 3ea0
00000160: 7c31 579d 93d0 0780 1843 ae80 e82a 2e80
00000170: 43fb fbac ed7b 3f80 5186 ed80 b759 cd8b
00000180: 72a6 c99d c6a1 e392 ef3a 959a 3f71 569e
00000190: 34b7 b300 35c0 8600 0657 0f01 794f 80ac
000001a0: 67f9 1d9d 2da5 5c93 232b 4006 f79c 0ca3
000001b0: c1a6 1996 bcc0 b280 a6be 3101 6447 9881
000001c0: 7898 8905 0536 6c01 c797 7aa8 43fc 5900
000001d0: a46d 989c e123 539a 69d7 6701 7254 3681
000001e0: f834 8a81 b463 9b80 be27 0b01 7239 678b
000001f0: a610 50a3 24ed 2101 323b 0c81 88c0 8701
00000200: ad15 aebd 3966 303e d841 e739 85f1 eb3d
00000210: 89c8 c4a5 4081 3d25 4eb4 d60e 84cf 8d3e
00000220: 94ba 3e3e 1caa e780 31c8 c2bd aabb a3bd
00000230: 9a89 2abe f1c2 103d d8c9 9abc 485b 2fb1
00000240: cd5c 4d3d 3928 1cbd f742 523e ccae c83d
00000250: 4ae0 9986 34ff 62bd 3ea3 589c 7c33 41be
00000260: 7fe2 1dbe ca58 29be 2561 033d 41f1 c7bc
00000270: 07ca 4cbe 784b 1c3d edbb ae3d e01d 8d3e
00000280: 1109 0ebe 06d7 e53c d370 1e3e 46ca 603e
00000290: 6497 ba3c 1fd1 e23d 60d3 8480 de0b cb3d
000002a0: 94f0 5a3e 9652 2a3d 13f7 913c 489a a3bd
000002b0: 6d87 3bbe 8428 c7bd be7d f398 dbcd 643c
000002c0: fc8e c1bd be6d 8798 94de e9bc 44f3 bf36
000002d0: 5159 573e 60e6 84bd ca0a 9439 36d5 a2b4
000002e0: 9ccd d93b 2a4a fd3d 7e8a 7c35 7d6d 99be
000002f0: 43bb 92be ee8b 4f2e 2afb c200 daa4 64bb
00000300: 6956 c13e 4993 e1bc d113 c5be 1a2c b1be
00000310: bacc ec32 fe5d 9a32 e575 fc1c 5c51 f23d
00000320: df81 f2be a616 bc80 f6e4 3fbd 76e2 af3d
00000330: bfdd 163e 4324 e03d 3b41 823e 0546 aab7
00000340: 8b9e 483d cc24 1f3e 273a 4ebd 4524 bb3d
00000350: ded6 8c99 57ac 0b3e 0e37 7a01 82f0 dfbd
00000360: 9dc3 433e 145f d1bd aa01 243e dda6 5abe
00000370: 23e0 f0bd 8501 bdbc 6040 0dbd f0d8 d7bd
00000380: c4fe afbe 71e0 98bb 6c29 82bd 9416 ebbc
00000390: 0e92 323b 84a8 b03e 1605 af22 c354 593d
000003a0: 3310 cdbe a7c2 febc c6ce 53be f534 3f3e
000003b0: 142d 953e 17e3 463d 379d 12ac 88a1 1b3c
000003c0: 3dcf a03c 0573 9097 472f 603e 9617 4738
000003d0: 5b0e cb3d 1ca1 093e 9d49 aa3b 1179 8035
000003e0: b399 f4bc 3d5f 74be f380 ca36 e9cc 353e
000003f0: 8835 213e 47aa 552e e6a2 7c80 b00f 9b3b

decoder.4.bias f4 [128]
-3.7387834e-38 -1.9069304e-38 -0.058041796 -0.05689189 -0.0032388463 0.23662774 -0.3113187 -6.8137723e-38
-3.8794778e-22 0.10133301 -0.13504261 0.07326485 0.10005709 0.028052295 0.16965945 -0.11204045
0.16564727 0.09882921 -0.12719028 0.27316442 -6.234599e-38 -0.010472991 -5.4537617e-38 0.088496424
-4.8148716e-38 0.08150144 -0.058104943 -3.133546e-34 -0.016649343 0.21973276 0.062952235 1.7874552e-34
-5.5337327e-38 0.1757462 -2.505446e-38 0.14626825 0.053104173 0.112133294 -5.341743e-06 0.016012713
-0.009327034 -0.03585034 0.17340067 0.24095076 -1.391064e-31 -0.21495178 -4.2973323e-38 -1.0868787e-16
-0.006147456 0.29499927 -0.01520762 -0.004394024 -0.031969663 0.07547018 0.098311536 0.023130571
-5.424591e-38 0.01778607 -0.021083808 0.2237576 -5.3747324e-38 0.11754102 0.18091038 -0.09164004
0.1742897 -0.09327698 0.12262844 0.024084006 0.070233606 -0.0016146776 -2.3267154e-38 0.04190431
-2.4287632e-09 -1.7702465e-38 -0.058054283 0.046219338 -0.043143347 0.044790383 -0.30941904 0.06376881
-0.040169094 0.12815416 -0.028719634 -0.00038735004 -3.524918e-38 0.12855956 0.0015170081 0.19367874
0.002123979 -0.1788337 -3.572531e-38 8.828602e-27 0.09455853 0.02599279 0.017554006 0.12720826
-9.861715e-22 -2.521809e-25 -1.2939397e-38 0.12088098 0.20557982 0.10949037 -3.1513539e-15 -0.16507809
-4.7958382e-29 0.3102341 -0.011379573 -6.479112e-38 0.43177357 -4.565063e-12 -1.00283214e-28 -5.0604744e-38
0.20919238 1.1059488e-21 0.022028007 -0.037319433 -0.00023089224 -1.2011009e-06 -0.012940776 0.111106604
-0.0013519276 0.2247356 0.18363942 0.1265025 0.06500279 0.033042066 -0.23986275 0.08271605
00000000: 098f 4b81 76a5 cf80 3cbd 6dbd 7807 69bd
00000010: d342 54bb 8b4e 723e 2a65 9fbe 107d b981
00000020: 0380 ea9b ae87 cf3d 9c48 0abe e20b 963d
00000030: bbea cc3d edcd e53c 35bb 2d3e 7775 e5bd
00000040: 709f 293e f866 ca3d 2b3e 02be 35dc 8b3e
00000050: d0b8 a981 e896 2bbc 2c77 9481 9d3d b53d
00000060: c212 8381 3aea a63d 73ff 6dbd 8642 d087
00000070: 3464 88bc a001 613e 1aed 803d f397 6d07
00000080: 7da4 9681 d0f6 333e d268 0881 58c7 153e
00000090: c383 593d 24a6 e53d 393d b3b6 182d 833c
000000a0: 6ad0 18bc ced7 12bd f28f 313e ccbb 763e
000000b0: 0892 348c 521c 5cbe 12f8 6981 ff9d faa4
000000c0: 9970 c9bb 250a 973e 6229 79bc bffb 8fbb
000000d0: 9ff2 02bd 1c90 9a3d 8f57 c93d 537c bd3c
000000e0: e2ab 9381 18b4 913c f3b7 acbc b620 653e
000000f0: 6b50 9281 59b9 f03d 9240 393e c6ad bbbd
00000100: 0079 323e 0008 bfbd 9f24 fb3d d24b c53c
00000110: a3d6 8f3d 97a3 d3ba 5c5b fd80 dba3 2b3d
00000120: 41e7 26b1 45c3 c080 54ca 6dbd 7d50 3d3d
00000130: 14b7 30bd 1f76 373d 2c6c 9ebe 3999 823d
00000140: 5988 24bd d83a 033e 7045 ebbc 3e15 cbb9
00000150: 30ea 3f81 1ea5 033e 58d6 c63a b853 463e
00000160: 7432 0b3b 2e20 37be d181 4281 55de 2e14
00000170: e7a7 c13d d5ee d43c 6bcd 8f3c e242 023e
00000180: a906 959c a917 9c96 c6e5 8c80 7290 f73d
00000190: 8483 523e 7d3c e03d 3814 63a7 3b0a 29be
000001a0: 8a2d 7390 01d7 9e3e 6371 3abc d260 b081
000001b0: 6d11 dd3e 6f9e a0ac 873f fe90 5cc2 8981
000001c0: 8736 563e 5220 a71c 1474 b43c 43dc 18bd
000001d0: aa1b 72b9 8335 a1b5 8c05 54bc dc8b e33d
000001e0: 2a33 b1ba 1721 663e f90b 3c3e df89 013e
000001f0: 2f20 853d 1e57 073d 959e 75be 0867 a93d
